DS_1000/ds1000_data/Pytorch/Insertion/q61/my_model.pt (torch, 1951 bytes, 4 tensors)

0.weight f4 [15, 4]
000000 b4 6e b4 be 85 d9 b4 be 98 d4 35 3f cf 71 9b 3f
       -0.3524071 -0.35322204 0.7102752 1.2144107
000010 4e 89 0b bf be 22 a4 be 89 98 4c 3f 15 6e b7 3f
       -0.54506385 -0.32057756 0.7992025 1.4330469
000020 f2 5d 9b 3e 5a d5 e5 be 32 ce ef be a1 cf 44 bf
       0.30345112 -0.44889337 -0.46837002 -0.76879317
000030 bd 91 ad 3e b1 77 9c 3e 0d 82 32 bf 00 51 8a bf
       0.33900252 0.30560067 -0.6972969 -1.0805969
000040 6e 82 37 3e 23 e3 25 bf 1b 7e c9 3e 72 0a 7f 3f
       0.17920849 -0.6479971 0.39354023 0.99625313
000050 2b 9a 98 3e 52 9e 3c 3f 64 99 83 bf 8f b8 23 bf
       0.2980512 0.7367908 -1.0281186 -0.6395349
000060 5c a0 63 3e 7b 7e 8a 3f a2 0f 58 bf 63 fb a6 bf
       0.22229141 1.0819849 -0.84398854 -1.3045467
000070 75 3a 9a be f8 5f 58 bf 12 d6 c1 3f d1 21 f6 3f
       -0.30122724 -0.84521437 1.5143454 1.922907
000080 5c a4 28 3e 9b cd c4 3e 9c d0 0e bf a8 71 83 bf
       0.16468948 0.38438115 -0.5578706 -1.026906
000090 e7 dc 7b be a5 ca 58 3f 34 4f 90 be f3 18 98 bf
       -0.24595986 0.8468421 -0.28185427 -1.1882614
0000a0 76 5b 06 be 96 2f 58 3f a2 03 27 bf 2d 8a 1e bf
       -0.13120827 0.8444761 -0.6523992 -0.6192959
0000b0 b8 3a 13 3f 91 30 e4 3e 31 40 21 3f 22 37 69 be
       0.5751147 0.44568303 0.62988573 -0.22774938
0000c0 fd ca b4 3e 2a 27 8f 3f 0b e8 7e bf 50 06 bd bf
       0.35311118 1.1183827 -0.9957282 -1.4767551
0000d0 bd 94 3f 3e 41 05 40 3f 64 2e 4f bf 0e fb 72 bf
       0.18709083 0.75008017 -0.8093016 -0.9491433
0000e0 91 a9 c5 be 67 2c 43 bf cf e1 82 3f 38 0f 9d 3f
       -0.3860593 -0.7623963 1.0225161 1.2270269

0.bias f4 [15]
000000 00 7c 4d bf 12 c8 56 bf a2 51 36 3e 50 20 8a 3f
       -0.80267334 -0.83899033 0.17804578 1.0791111
000010 4b 5e 80 bf c7 7b 2f 3f 56 b3 42 3f 2b 85 57 bf
       -1.0028776 0.68548244 0.76054895 -0.84187573
000020 7c eb 68 3f 33 66 10 3f 44 0a 7e 3e 75 f8 5d be
       0.9098432 0.56405944 0.24808604 -0.2167681
000030 c4 51 36 3f 9d 02 80 3f 6b 6c 16 be
       0.71218514 1.0000798 -0.14689796

2.weight f4 [3, 15]
000000 29 8c ed bf db eb c6 bf 31 79 15 3e d3 44 53 3f
       -1.8558398 -1.5540727 0.14597012 0.8252689
000010 ef 25 7c bf fa ee 86 3f 4b d4 2d 3f 8c 39 12 c0
       -0.9849538 1.054168 0.6790206 -2.2847624
000020 ed 7e 6e 3f 83 04 7a 3f 8f 91 3e 3f 36 ec a4 be
       0.93162423 0.97663134 0.74440855 -0.32211465
000030 c2 94 a1 3f 12 87 4b 3f bd f8 d5 bf 84 d8 e2 be
       1.2623522 0.79502976 -1.6716534 -0.44305813
000040 63 13 d1 be d4 4c 38 3e 4c f5 14 3f 68 7a d6 bd
       -0.40835103 0.17998058 0.58186793 -0.10472566
000050 91 53 0e 3e 08 3e 6d 3e 3d 5a 9d 3e 9d 59 03 3f
       0.13899066 0.23168194 0.3073291 0.51308614
000060 aa 9d 93 3e 2f 6c 44 be 1f 39 9a bd ea 75 34 be
       0.28831226 -0.19181894 -0.07530426 -0.17623106
000070 81 89 9a 3e 59 74 da bb be 67 29 3f 87 9f 70 3f
       0.30183032 -0.0066667018 0.66173923 0.9399342
000080 cd 35 46 be 43 a6 c0 bf 84 cc 0c 3f b7 b2 c6 bf
       -0.19356461 -1.5050739 0.54999566 -1.552329
000090 14 c6 ce bf d4 34 fc 3e a9 e5 a6 bf b5 c0 58 bf
       -1.6154199 0.49259055 -1.3038837 -0.8466905
0000a0 f4 9a 5f bf 8d 7e 1e 3c 36 81 07 c0 af 21 c2 bf
       -0.87345815 0.009673727 -2.1172614 -1.516653
0000b0 e4 17 32 3f
       0.69567704

2.bias f4 [3]
000000 b8 d6 0d bf ef 07 46 be 31 a8 c8 3e
       -0.5540576 -0.19338964 0.3919082
